python_backend/model_best.pth (torch, 102955 bytes, 20 tensors)

net.0.weight f4 [16, 1, 3, 3]
000000 92 2d 61 3e 51 98 74 3e b5 d3 e9 bd 91 b4 ab 3e
       0.2199004 0.23886229 -0.11417333 0.335362
000010 86 29 3c bd 33 56 c1 3d 0d 9f 13 be 79 8e 59 3e
       -0.045938037 0.09440269 -0.14416142 0.21245755
000020 7f 0e a3 3e 72 34 66 be 84 87 96 3e ef 65 71 3d
       0.31846997 -0.22480944 0.29400265 0.058935102
000030 5a e8 83 3e 1a 68 75 3d 6c 96 33 3e 03 19 5a bd
       0.25763208 0.059913732 0.1753785 -0.05324651
000040 08 b6 84 3e 48 64 5d 3d 8f dd 17 be 37 74 bc 3d
       0.2592013 0.054050714 -0.14830612 0.09201854
000050 91 35 16 be e5 af 66 bd 91 62 16 be 59 56 5b 3e
       -0.14668871 -0.05632009 -0.14686038 0.21419658
000060 33 49 8a be a8 c0 23 be 67 b6 c7 bd 7a b2 3b be
       -0.27008972 -0.15991461 -0.09751587 -0.18329802
000070 b4 47 39 3d b9 56 a4 be 5b 88 a6 3e 11 99 83 be
       0.045234397 -0.32097414 0.32525906 -0.25702718
000080 5f 70 8a 3e 6c 55 92 3d b0 fd ba bd fc 8f 5d 3e
       0.27038857 0.07145199 -0.09130418 0.21636957
000090 d9 69 62 3d 5e 41 8a 3e 6b cf 24 3d a0 1a bf bd
       0.055276725 0.27002996 0.04023687 -0.0933125
0000a0 77 ec cd 3d c1 b1 9f bd 7e 7f 1e 3e ef fd 9b 3e
       0.10054868 -0.07797576 0.15478322 0.30467173
0000b0 5d fa 4e 3e 1f 4e 03 be 5b 33 59 3e 9d d2 ac 3d
       0.20212694 -0.1282277 0.21210997 0.08438609
0000c0 0e 6d 1a 3e 07 88 4e be c0 97 9b be a7 f2 24 be
       0.15080664 -0.20169078 -0.30389214 -0.1610819
0000d0 47 87 93 be e9 35 77 3e bc a2 ce 3d 45 31 13 3e
       -0.28814146 0.24141659 0.10089633 0.14374264
0000e0 66 4c d8 3d eb ee 23 3a ef 46 88 3e d8 7b 6d be
       0.10561447 0.0006253558 0.26616618 -0.23191774
0000f0 57 68 95 3c 67 c7 6c be 0e 41 c2 3d d2 5d fc bd
       0.01823823 -0.23122941 0.094850644 -0.12322582
000100 ee 49 b3 3d 1d 27 b2 bd 63 74 90 3e 95 fd 42 be
       0.08754335 -0.086988665 0.28213796 -0.19042046
000110 70 9c 44 be 21 4d 3b be 55 cb a0 3e f8 3a ff 3d
       -0.19200301 -0.18291141 0.3140513 0.12462419
000120 d3 3c 96 3e 9f 16 92 be 89 81 a8 be 2a 18 87 be
       0.2934328 -0.28532884 -0.32911327 -0.26385623
000130 cc 82 71 be a8 b8 f2 3d 0d c2 16 3e 69 b2 9c 3e
       -0.23585051 0.11851627 0.14722462 0.30604866
000140 93 6d 0d be ac 5d 56 be 23 6f 40 3e 55 36 02 be
       -0.1381133 -0.2093417 0.18792395 -0.12716039
000150 8b 3f 5d 3e 50 be 8c bd d5 5f 4c 3e 87 a0 87 be
       0.21606271 -0.06872237 0.19958432 -0.2648966
000160 29 05 2f be e5 8b d1 3d c5 6b ad 3d 13 6c 89 bd
       -0.17091812 0.10231761 0.08467821 -0.06710067
000170 a9 f7 60 3e 98 2a 60 3e a5 fc 76 be d7 fa 32 be
       0.21969475 0.21891248 -0.24119814 -0.174785
000180 27 1b 8e 3e 07 d4 10 be 4f e8 13 be 1d a5 a4 be
       0.2775509 -0.14143382 -0.14444087 -0.3215722
000190 ce 48 44 be 1c 1d a1 3d d4 8b 76 bd 0b 2c 84 be
       -0.19168398 0.0786688 -0.060191944 -0.25814852
0001a0 7e 76 0d bc a2 05 61 be 2d 02 8d be f8 64 35 be
       -0.008634208 -0.21974805 -0.27540722 -0.17714298
0001b0 9e d5 8e be d5 a5 4f be 7f 6f ad 3e 50 12 35 3d
       -0.27897352 -0.20278104 0.33874127 0.044206917
0001c0 86 a1 aa 3d a5 be a8 be 56 b6 61 be d9 bd e2 bd
       0.083315894 -0.3295795 -0.22042212 -0.11071367
0001d0 da 4a 54 3d df be 99 be 74 26 13 be 23 a8 49 be
       0.051829197 -0.30028436 -0.14370137 -0.19693045
0001e0 0b ca 6c 3b d7 a9 fc bd 05 6c c7 bc 44 7b 63 be
       0.003613117 -0.12337082 -0.0243435 -0.22214991
0001f0 66 eb 68 be 02 82 45 be 1d 18 ce bd 29 12 80 be
       -0.22746047 -0.19287875 -0.10063193 -0.25013855
000200 d1 1e 95 3e 1d 48 83 bd 6b b7 96 3e 28 2d e4 3d
       0.29125074 -0.06410239 0.29436812 0.11141425
000210 2a 1c 92 be cd b5 6d 3e 3b 88 bc bd 5e 3a 0d be
       -0.28537112 0.23213883 -0.092056714 -0.13791797
000220 aa aa 9a be ce 15 b9 be c1 d4 e6 3d 87 52 6e bd
       -0.3020833 -0.36149448 0.11271048 -0.058184173
000230 5b 51 10 3e 27 bd 78 be 22 03 8e 3e f5 33 5f be
       0.14093535 -0.24290906 0.27736765 -0.21797164

net.0.bias f4 [16]
000000 3f 6b 70 bd 21 74 87 3d ca 71 32 3e 7f f8 87 3e
       -0.058696028 0.06613947 0.1742622 0.26556775
000010 cd ab 9b 3e bb fd 86 be 7f e5 a1 3d 13 cb 0c be
       0.3040451 -0.26365456 0.07905101 -0.13749342
000020 24 67 0a bd 79 2a 7f be 92 8b 9c 3e 60 f0 79 be
       -0.03378977 -0.24918546 0.30575234 -0.24408102
000030 a4 e5 36 3e a8 7c ec 3d 73 de d6 3d cc 56 3a be
       0.17861038 0.11547214 0.104916476 -0.18197173

net.1.weight f4 [16]
000000 cd 73 82 3f 34 72 81 3f f0 2b 81 3f 65 7a 7b 3f
       1.019159 1.0112977 1.0091534 0.98233634
000010 e6 52 7e 3f 4c 8d 80 3f b6 27 81 3f e0 15 80 3f
       0.9934524 1.004312 1.0090244 1.0006676
000020 96 6b 7e 3f 90 75 7d 3f c3 31 81 3f 3c 3a 80 3f
       0.99382913 0.9900751 1.0093311 1.0017772
000030 85 3c 7c 3f fc 39 7e 3f d0 a1 80 3f 26 ee 7d 3f
       0.98529845 0.9930723 1.0049381 0.9919151

net.1.bias f4 [16]
000000 fd ae ca 3c 3f 07 6f 3c 62 98 02 3d b4 59 1f bc
       0.024741644 0.01458913 0.031883605 -0.009725977
000010 f6 2b c8 3c a1 72 1d 3d 4e 6d c5 3c 20 8e 21 3c
       0.024435025 0.038439397 0.024099972 0.009860545
000020 b0 91 07 3a 5f 38 91 3a 47 63 27 3d 82 0e 9f bc
       0.00051715504 0.0011079422 0.040866163 -0.019416098
000030 21 1e f3 bc 1f b7 73 3c 72 9b e6 3c 95 c5 eb bc
       -0.029677453 0.014875202 0.028150294 -0.028780738

net.1.running_mean f4 [16]
000000 83 7e a4 bc e7 79 be 3d 75 2f f5 3d 2c 7d 92 3e
       -0.020079857 0.09300595 0.11971942 0.28611124
000010 0e 8d bc 3e 4c 08 90 be 39 44 88 3d b3 8c e0 bd
       0.36826366 -0.2813133 0.066536374 -0.10964336
000020 15 99 34 bb a6 40 8f be 7d 8e 9b 3e a6 11 9f be
       -0.0027557064 -0.2797901 0.30382147 -0.31068152
000030 dc 5b 19 3e d7 2b 57 3d 67 0b bc 3d ff a1 4a be
       0.14976448 0.052532043 0.09181862 -0.19788359

net.1.running_var f4 [16]
000000 19 6a 99 3e 1c 31 83 3e dd 0d d1 3d f3 22 a2 3e
       0.2996376 0.25623405 0.10207722 0.3166729
000010 bf 41 70 3e f7 d4 31 3e 84 4f 05 3e f5 ac 4e 3d
       0.2346258 0.17366396 0.13018614 0.050457913
000020 49 fc 8a 3e 77 87 30 3e 80 f4 db 3d 43 c2 c1 3e
       0.27145603 0.17239176 0.10739994 0.37843522
000030 69 1c be 3d 2d 33 02 3f db 9a 10 3e 3f df 2a 3f
       0.092827626 0.5085934 0.14121573 0.66746897

net.4.weight f4 [32, 16, 3, 3]
000000 3a 9f 5e 3d c8 77 99 bb 03 12 ff bb 64 88 c2 bd
       0.05435107 -0.0046834685 -0.0077841296 -0.09498671
000010 58 e5 9d 3c bc 9c 8b bc 34 03 66 bd 8d 56 50 3d
       0.019274399 -0.01704251 -0.0561554 0.05086379
000020 ed c1 18 ba 95 d0 8a bd 9d 18 81 bd 62 5a 9e bc
       -0.0005827237 -0.06778065 -0.06303523 -0.019330207
000030 7b 58 a8 3c a6 c8 2c bd af d1 6f bd 1b 9e 3c bd
       0.020550003 -0.04218354 -0.05854958 -0.04604922
000040 47 d5 a0 bd 7e 75 3f 3c 38 b5 9b 3d b9 d4 9a bd
       -0.078531794 0.011685727 0.07602924 -0.07560105
000050 91 7b 5a 3c e2 a0 7e 3d 03 34 6a 3c 31 20 23 bd
       0.013335125 0.06216515 0.014294627 -0.039825622
000060 53 65 27 3d 1c d4 f6 3c d5 cf 86 3c 37 30 18 bc
       0.040868115 0.030130439 0.016456524 -0.009288839
000070 0e 3e b8 bc 78 9a 5f 3b b1 d4 f7 bc 9d b6 31 bd
       -0.022490527 0.003411917 -0.030252786 -0.043387044
000080 63 7e 31 3d 2a de 6a 3d 3f b8 ec bc 0e ab 2b bd
       0.043333422 0.05734078 -0.02889645 -0.041911177
000090 50 0d 9d bb b9 72 30 bc 0a ba 96 3c 0d 44 79 3c
       -0.0047928467 -0.0107695395 0.018399257 0.0152139785
0000a0 83 56 a2 bd 7f 11 ca bc c3 48 8c 3d 20 2c fd 3c
       -0.07926657 -0.024666546 0.06849816 0.03090483
0000b0 29 0d ed bb 6e 76 24 bd 8a 86 2f bd 07 32 82 bd
       -0.007234235 -0.040152006 -0.042852916 -0.06357198
0000c0 14 38 bc bc 0d 1a 8e 3c 83 a3 1f 3d 64 b6 04 3d
       -0.022975959 0.017346406 0.038974296 0.032400504
0000d0 1f 47 aa bd 55 81 5f bd 31 e3 18 bd 19 1b 66 3d
       -0.083143465 -0.0545667 -0.03732604 0.056178186
0000e0 4a 11 c9 bb 48 23 2e bd 35 69 5f 3c 5c 3d 47 bd
       -0.006136094 -0.042514116 0.013635923 -0.0486425
0000f0 ce 75 a4 bd 29 64 24 3d fc e7 66 bd a1 f2 a8 bc
       -0.08030282 0.040134583 -0.05637358 -0.020623507
000100 91 d2 b4 bd 4d 73 71 3d b7 69 20 3d 82 c4 f5 3b
       -0.08829225 0.05894785 0.039163318 0.007500232
000110 2d 8d aa bd 2b 8b c9 bd 33 a9 b3 bd 04 fb 48 3d
       -0.083277084 -0.09840997 -0.087725066 0.049067512
000120 dc c8 16 3d 80 f3 77 3d 29 92 08 3d 2d ed 15 3c
       0.03681265 0.060534954 0.033342514 0.009150785
000130 6b 7a 90 bc 67 01 9e bd 79 d3 b5 bd fc 76 d4 bd
       -0.017636498 -0.07715111 -0.08878226 -0.10374257
000140 61 be 37 3c 32 71 a1 bc 55 2f a6 ba c5 04 22 bd
       0.011214823 -0.019707296 -0.0012678901 -0.03955533
000150 7f e2 2d 3c 61 c3 31 bd 9c 93 0f bd 20 99 10 3d
       0.010613083 -0.04339922 -0.03505288 0.03530228
000160 86 cf cf bc 01 03 43 3d d9 4c be bc 46 6f 78 bd
       -0.02536751 0.047610287 -0.023230003 -0.060652994
000170 1b e1 f5 3b 87 1e e4 bc 85 f6 1b bd 2a 9e a2 bd
       0.0075036413 -0.027846588 -0.038076896 -0.07940324
000180 7a ab 65 3d 2a 0f 4e bd 94 94 8b 3d b8 52 4e 3d
       0.056071736 -0.05030743 0.068154484 0.050371855
000190 ae 0a 77 3d 55 3b 94 bd 44 c6 8c 3d 25 6d 49 bd
       0.06031292 -0.07237879 0.06873754 -0.049176354
0001a0 42 7f 72 3c 50 8c a1 3d c5 f1 c9 bc 27 70 80 bc
       0.014800848 0.078880906 -0.024651418 -0.015678478
0001b0 40 16 87 3b 6c e0 54 bd 37 b2 49 3d fe 01 83 bd
       0.0041225255 -0.051971838 0.049242225 -0.06396864
0001c0 66 e1 5c 3d 0a 4d 57 3d d9 15 bd 3d a3 fd 5c bc
       0.053925894 0.052563705 0.09232683 -0.013488206
0001d0 ba 6a 8e bd fd 4a 22 3d 4f 4f 61 3d 2b 30 a9 bd
       -0.0695395 0.039622296 0.055007275 -0.082611404
0001e0 5f e6 6c bb 53 f6 4f bd 20 68 30 bc dd 8d ed bc
       -0.0036148054 -0.050772022 -0.010767013 -0.02899831
0001f0 55 4a 21 bd c2 0e 12 bd 0d 2c 79 bd 78 ab a9 3d
       -0.03937753 -0.035658605 -0.060833026 0.08284658
000200 f5 38 b0 3d df b7 81 3b d2 27 74 3c 7b 97 ae bb
       0.08604614 0.0039586867 0.014902072 -0.0053281165
000210 87 cd 83 bd 7f b7 93 bd 12 34 07 3d 2b 5a cc bc
       -0.064356856 -0.072127335 0.033008642 -0.02494534
000220 6f 81 2b bd 49 29 ad 3a 38 4d a6 bc e3 10 dd bc
       -0.041871484 0.0013211156 -0.020300493 -0.026985591
000230 81 c0 ac 3b da 34 cf bb 3e 7c 14 bd b9 a6 57 bd
       0.0052719717 -0.006323439 -0.0362513 -0.052649233
000240 36 4e a4 bd 80 a6 71 3d ae 4a 2d bd 83 c9 cb 3c
       -0.0802273 0.058996677 -0.04230755 0.024876362
000250 de 40 c9 bc e4 d6 ff 3b 88 d1 b2 3d 52 4d 56 3d
       -0.024567064 0.0078075994 0.08731371 0.052319832
000260 dc 26 5e bd bd 97 4c 3c 3b d5 63 3d 57 94 c2 3b
       -0.054236278 0.012487349 0.055623274 0.0059380936
000270 cf 7e 7a 3d 17 44 b6 3d 7f 0f cc bb e7 95 dd 3c
       0.06115609 0.08899706 -0.006227433 0.027049018
000280 57 3d 2d bd 2a 7c e7 ba 5b 0c 6e 3d 28 58 35 3d
       -0.042294826 -0.0017660905 0.05811725 0.044273525
000290 52 8a 4a bd a8 45 a8 bd 41 d8 93 bd cb dd c6 bd
       -0.04944832 -0.08216411 -0.072189815 -0.097102724
0002a0 61 b9 80 bd 63 b6 cd bc 7d 45 46 3d d7 4d 00 3c
       -0.06285358 -0.025111383 0.048406113 0.007831058
0002b0 e7 e0 81 bd 9c c2 83 bd 1f ed 17 3d 8c 23 82 bd
       -0.06341725 -0.06433603 0.03709137 -0.06354436
0002c0 c9 a2 0f bc 09 e1 1a 3d c8 1c 2b bd c4 c8 01 bc
       -0.008766838 0.037812266 -0.041775495 -0.007921401
0002d0 7e aa b8 bc f3 61 05 bd 7e a4 53 bd d9 b3 a1 bd
       -0.022542235 -0.032564115 -0.051670544 -0.07895631
0002e0 49 ed 8e bd 7d eb 39 bd 89 c7 99 3d f6 8b 23 bd
       -0.06978852 -0.045390595 0.075087614 -0.0399284
0002f0 11 77 55 bd dc b1 d0 3c aa 98 04 3d ed 4f 57 3d
       -0.052115504 0.025475435 0.032372154 0.052566458
000300 45 8c 41 3d 47 d3 0a 3d 4c 4f bc bd 80 70 0a 3b
       0.047252912 0.033892896 -0.09194812 0.0021124184
000310 7f d5 38 3d 43 fd 7a bc 5b 1f 3b bd d9 e8 9c 3d
       0.04512548 -0.015319171 -0.0456842 0.076616
000320 0f 9b 17 bd 04 5d 8f bd 67 fd c0 bd 89 df 4c bc
       -0.03701311 -0.07000163 -0.09423333 -0.012504467
000330 27 f5 3d 3d 3b 12 fd 3c 3d ba f9 3c 64 da 83 bd
       0.046376374 0.030892482 0.030484313 -0.06438139
000340 f1 53 95 bd e1 21 39 b9 1f 43 a1 3d f7 5b 7c 3d
       -0.07291401 -0.00017655596 0.078741305 0.061611142
000350 64 66 03 bd c4 e9 be bc c2 af 88 bd 04 d8 16 bd
       -0.03208007 -0.023304828 -0.06674148 -0.036827102
000360 87 f8 2b 3c d1 95 42 3d 62 38 9d 3d fb 92 9b bd
       0.010496265 0.047506157 0.0767677 -0.07596394
000370 77 1c 6a 3d f7 e9 6e bd 31 35 81 3c a4 d0 5d 3d
       0.057156052 -0.058328595 0.015772434 0.054154053
000380 02 2b 47 bc ea 18 82 3d c8 99 9a bd 88 62 ee bc
       -0.01215625 0.06352408 -0.07548863 -0.029099718
000390 04 db 21 3d c9 7d de bc de 2d e4 bc bb f8 e3 bc
       0.03951551 -0.027159588 -0.027853902 -0.027828565
0003a0 f2 26 84 3d cd 99 3c 3d 2c 9a 17 3d 01 26 07 bd
       0.06452741 0.046045113 0.037012264 -0.032995228
0003b0 3f eb 81 bd 66 2a 38 bc d7 f2 34 3c 52 71 36 bd
       -0.06343698 -0.011240577 0.011044226 -0.044541664
0003c0 52 3b b9 bc ed 42 58 3d 9c c8 d8 3b 0b bd cf 39
       -0.022611294 0.0527982 0.0066157114 0.00039622965
0003d0 b7 11 a2 bc 44 83 92 bd 6c cf bb bd b3 16 5c bd
       -0.019783838 -0.07153943 -0.09170422 -0.053732585
0003e0 5d ce 65 bd 76 8d 9f 3c a4 42 15 bd d1 7f 42 bd
       -0.056105006 0.019476634 -0.036440507 -0.047485176
0003f0 f2 2f 8f 3d 5d 11 b7 3c 80 ad 6e 3d eb a7 5d bd
       0.06991567 0.022347147 0.05827093 -0.054115217

net.4.bias f4 [32]
000000 75 3c b8 3c b6 c4 30 3d 54 a0 9b bd 04 76 65 bd
       0.022489766 0.04315635 -0.075989395 -0.05602075
000010 8a b0 a2 bd 8b b4 22 3d 0c 6d 80 3d 7c a6 a5 bd
       -0.079438284 0.03972296 0.06270799 -0.08088395
000020 97 ab b9 3c d1 f5 85 3c b6 10 33 bd b4 f5 92 3c
       0.022664828 0.016352566 -0.04371711 0.017939426
000030 d9 2f 86 3d 33 1a a9 3d 98 66 0c 3d 8b 71 68 bc
       0.06552095 0.0825695 0.03427753 -0.014187227
000040 96 46 45 bd 16 5e 06 bd 34 76 2b 3b 2a 07 a6 bb
       -0.04816302 -0.03280457 0.0026162984 -0.005066772
000050 54 29 82 3d 1e 9b 97 bd b1 a8 29 3c a4 d4 da bc
       0.06355539 -0.07402633 0.010355161 -0.026712723
000060 93 a1 cd 3b 58 bc a4 3d f3 49 80 3b cb df 71 bc
       0.0062753647 0.08043736 0.0039150654 -0.014762829
000070 59 df e2 bc ec be a9 bd 5c 7b 90 bd cb bb 19 3d
       -0.027694391 -0.082883686 -0.07054779 0.03753261

net.5.weight f4 [32]
000000 ae 20 82 3f d9 65 80 3f fc 47 7d 3f cd d5 7c 3f
       1.0166223 1.0031081 0.98937964 0.98763734
000010 7d f7 7a 3f f0 e8 7e 3f 09 5a 7f 3f 3c fc 7b 3f
       0.9803389 0.99574184 0.9974676 0.98431754
000020 cc 9d 80 3f d9 3e 81 3f 0b ae 7e 3f 5c 92 7c 3f
       1.0048156 1.0097305 0.9948432 0.98660827
000030 06 08 80 3f ac 96 7f 3f c0 60 82 3f f4 d6 7a 3f
       1.0002449 0.9983928 1.0185776 0.9798424
000040 bb 87 7a 3f db 10 7c 3f e7 e6 84 3f 81 6f 80 3f
       0.9786336 0.9846322 1.0382966 1.0034028
000050 69 36 7e 3f c6 96 7b 3f 47 27 81 3f 8e 27 81 3f
       0.99301773 0.98276937 1.0090111 1.0090196
000060 ae 4a 81 3f 19 31 7e 3f b8 02 80 3f 9b 72 79 3f
       1.0100915 0.9929367 1.000083 0.974405
000070 d5 c0 80 3f 82 b8 81 3f 60 bf 83 3f 1d ae 7f 3f
       1.0058848 1.0134432 1.0292778 0.9987505

net.5.bias f4 [32]
000000 56 91 14 3c 38 4f e8 39 0b 22 2d bc e1 71 b5 bc
       0.009067854 0.0004430951 -0.0105671985 -0.022149028
000010 61 49 52 bc 06 58 97 bb 08 ae 8a 3a a4 2a 87 bb
       -0.012834878 -0.0046186475 0.001058043 -0.004124956
000020 c7 47 d2 bb 55 66 7c 3a 8d b9 cb bb 3c b7 a6 bb
       -0.006417248 0.0009628286 -0.0062171877 -0.005087761
000030 01 05 2a bc 15 b2 c4 ba bd 77 e9 3b df f7 fb 3b
       -0.01037717 -0.0015006686 0.0071248696 0.0076894606
000040 a0 d8 1a bc 19 7e 10 bd f1 fe 7b 3b bf bd 86 bb
       -0.0094510615 -0.035276506 0.0038451517 -0.004111975
000050 9a 30 4b 3c c5 75 61 bc f0 0e af bc 3e e1 d6 bb
       0.012401724 -0.013760989 -0.021369427 -0.0065576127
000060 94 a4 87 bc 8e 3d 02 3c 2d 52 23 3b 42 46 ab bc
       -0.01655797 0.007949246 0.0024920807 -0.020907525
000070 c5 a2 6c 3c b3 8e f5 3b af d1 c5 bb 39 0d ee 3b
       0.014443104 0.0074938177 -0.006036959 0.00726476

net.5.running_mean f4 [32]
000000 b4 56 fd be f9 b3 6f be 6e dd a8 bc bd 10 56 3e
       -0.49480212 -0.23408498 -0.020613398 0.20904823
000010 d1 ab 50 3d 9a ca 5d be 07 73 01 3f ec be 4d 3d
       0.050945107 -0.21659318 0.5056614 0.050230905
000020 9b 64 09 bf b5 74 55 3e e2 d3 3f 3d b9 af d0 bd
       -0.53669137 0.20845301 0.046832927 -0.101897664
000030 60 2d 6e bd 48 f5 61 3e dd 32 8d be 80 14 36 3e
       -0.05814874 0.22066224 -0.27577868 0.17781258
000040 fc c4 cd 3e f9 7f dd 3e cd 1e 53 bd cf 18 04 3d
       0.4018935 0.43261698 -0.051543046 0.03225022
000050 3a 92 00 3e 08 fe 76 bd 80 9f 39 be 5d a7 52 bf
       0.12555781 -0.060300857 -0.1812725 -0.82286626
000060 be 5d 1e bc 7a ba 85 3e 86 3a 60 3b a6 ef 16 3f
       -0.009665905 0.26118833 0.003421457 0.58959424
000070 62 50 18 3e f0 09 99 bf ca 79 ef bd f0 b6 1b 3e
       0.14874414 -1.1956158 -0.11693151 0.15206504

net.5.running_var f4 [32]
000000 4c 9d 9a 3e a5 62 bb 3e 60 dd 88 3e 53 6e 4d 3e
       0.30198133 0.36598697 0.26731396 0.20061617
000010 88 7f 67 3e 4e e5 b8 3e 3f b4 b5 3e 5c af 3c 3f
       0.22607243 0.36112446 0.3548908 0.7370508
000020 60 3e 58 3e ec 4b ff 3d 90 0d 77 3d 7d 0c 29 3f
       0.21117544 0.12465653 0.06031567 0.6603468
000030 c1 f9 a5 3e 0d e1 41 3e c9 88 ba 3d 8c 1f 84 3d
       0.3241711 0.18933506 0.09108121 0.064513296
000040 34 cc 02 3f 5c f6 9e 3e 8a 8f a2 3e 51 32 5f 3e
       0.5109284 0.31047332 0.31750137 0.21796538
000050 92 27 9c 3d e7 70 f2 3d d8 40 2d 3e f0 01 8f 3f
       0.07624735 0.11837941 0.16919267 1.1172466
000060 7e bd 7c 3e 86 aa a3 3d 83 70 16 3e 78 f3 2a 3f
       0.2468166 0.07991509 0.14691357 0.66777754
000070 a4 c0 37 3e 1c 2f 09 40 bc 5a 82 3d 83 48 39 3e
       0.1794458 2.1435003 0.063649625 0.18094067

net.8.weight f4 [64, 32, 3, 3]
000000 c3 d5 79 bd 0c 53 da 3b 21 09 26 bd e8 cc 2d bb
       -0.060994875 0.006662732 -0.04053605 -0.0026519839
000010 8f 85 90 3c 34 74 47 bc 62 f3 08 bb 65 18 d4 3c
       0.01764181 -0.012173701 -0.002089702 0.025890538
000020 e7 fa 21 bd 5f 93 52 3d bb a6 1e bd 0f cf 67 3d
       -0.03954592 0.051410075 -0.038733225 0.05659395
000030 4e 87 af bc ab 9d 04 bc 34 c3 d7 3c 73 eb f8 3c
       -0.021426823 -0.008094232 0.026338197 0.030385708
000040 59 56 9c 3d e5 8c 9d 3a 73 75 2e bd 86 7d 2a 3d
       0.07633657 0.0012020139 -0.042592477 0.041623615
000050 75 e9 39 bd cb ab f7 3c 6a 59 3b 3d bc 7e fc 3c
       -0.045388658 0.030233284 0.04573957 0.03082215
000060 d3 74 d5 bb ea 27 78 3c ae 0e 1a bd 21 5d bc bc
       -0.0065141707 0.015146235 -0.037611656 -0.022993626
000070 55 c3 15 bb f6 0b e1 bc 0e 47 1a 3d 89 3c 0e 3d
       -0.0022852023 -0.027471524 0.03766542 0.0347257
000080 ed 4b 37 bc 82 e1 87 bb f3 91 81 3d 71 02 15 3b
       -0.011187536 -0.0041467557 0.06326666 0.002273705
000090 d3 e5 38 3d 41 2d 29 3d 89 3e dd bc 2b ba 71 bd
       0.045141052 0.041302923 -0.027007358 -0.059015434
0000a0 e4 91 55 3d 4f 76 09 bd ae 9d 7d 3d 65 8f f8 bc
       0.052141085 -0.033560093 0.061917953 -0.030341813
0000b0 14 3f 90 3c 88 af 0e bc 6a d8 2a bd 54 9f ac 3c
       0.017608203 -0.008708842 -0.041710295 0.021072067
0000c0 31 42 83 bd e1 1b 2e bd 88 5a 92 bc b3 85 52 3d
       -0.064091094 -0.042507056 -0.017865434 0.051397037
0000d0 ad 2f dc 3c b7 c4 19 3d 3c b3 38 3c e9 ce 10 3d
       0.026878202 0.037541118 0.011273202 0.035353575
0000e0 3a 3c 07 bd 37 42 0b bd 69 14 9c bc c4 32 38 3c
       -0.03301642 -0.033998694 -0.019052701 0.011242572
0000f0 a5 07 d2 bc 4f b1 5b 3c 70 8f 15 3c b4 69 6b 3c
       -0.02563841 0.013408973 0.009128436 0.014368463
000100 42 17 27 3d 2f 34 1a 3c 78 8c 1f 3d c1 7e 74 bc
       0.040793665 0.009411856 0.03895232 -0.014922799
000110 17 7a 49 bd ae 35 5c 3d 04 35 2e 3d 7f 4c 8a 3d
       -0.0491887 0.05376213 0.04253103 0.06752872
000120 8f 67 f1 ba 33 50 cf bc a9 9c 86 bd b2 6c 97 bd
       -0.0018417704 -0.025306797 -0.06572849 -0.07393779
000130 ef 2f dd bb 19 ca 05 3d 4c 59 f4 bc c0 1c 3a bd
       -0.006750099 0.03266344 -0.029827736 -0.045437574
000140 20 bb 9c 3b 4f c8 36 bd a4 1b 97 3b 13 da 7b bd
       0.004783049 -0.044624623 0.0046114493 -0.06148727
000150 22 18 8b bd c5 d1 53 bd 6b 13 e4 bc 00 ca 2f 3d
       -0.06791712 -0.051713724 -0.02784129 0.04291725
000160 f0 aa 58 3d 94 0a 75 bc f4 9e d6 bc 55 44 bf 3a
       0.052897394 -0.014956135 -0.026198842 0.0014592508
000170 c3 3f d2 bc b8 68 b6 bb d1 73 03 3d 95 23 b1 bc
       -0.02566517 -0.0055666827 0.032092873 -0.021623412
000180 82 22 6e 3c c9 37 01 3d ef 04 c9 3b 8f fe e9 bb
       0.0145345945 0.03154734 0.0061346213 -0.0071409415
000190 2d 11 15 bd d7 56 27 bd b3 ab 04 3b ad 36 10 3d
       -0.036393333 -0.0408543 0.0020243942 0.035208393
0001a0 f6 80 3c 3d 6f ee 76 3c cb df 82 3d 12 27 f5 bb
       0.046021424 0.015071495 0.06390341 -0.007481464
0001b0 b4 72 39 3c 8c 5f 0f bd 15 b0 29 3c 42 04 8b 3d
       0.011318851 -0.03500323 0.010356923 0.067879215
0001c0 20 5d 16 3d 33 2c 8e 3c 44 21 f4 ba 4f 88 03 bd
       0.036709905 0.01735506 -0.0018625637 -0.032112416
0001d0 66 8c d2 bc e4 38 3e bd 95 e6 22 3d ff ad c6 bc
       -0.025701713 -0.046440974 0.03977068 -0.02425289
0001e0 2e a5 08 bc b2 3f 4f bd fb c9 7f bc 02 a8 7e 3d
       -0.008340163 -0.050597854 -0.015612121 0.062171943
0001f0 c9 71 ce 3c c4 50 55 3b 69 87 34 3b 9d 9c 8c 3c
       0.025200741 0.003254936 0.002754653 0.017164523
000200 3e 9c aa 3c 4a 4e 89 bd 05 b7 af bc 68 cf 95 bd
       0.020826455 -0.067043856 -0.021449575 -0.0731495
000210 15 04 75 bd 7c 6b ca 3c 9f ff 88 bd a4 ff 13 bd
       -0.059818346 0.024709456 -0.06689381 -0.03613247
000220 1c ef 70 3c 6b 85 49 3d 3e b3 86 bd a8 b8 48 bd
       0.014705446 0.049199503 -0.065771565 -0.049004227
000230 00 d7 19 bd 76 bb 22 3d e8 c7 f8 3c 69 79 f4 3c
       -0.037558556 0.039729558 0.03036876 0.02984305
000240 f9 68 e7 3c 8c ea d8 bc 94 ed 05 3d ba 70 e7 bb
       0.028248297 -0.026479028 0.032697275 -0.0070629986
000250 b2 b9 31 3b 26 8f 92 bc 1a b7 43 3c 9a d0 5e 3c
       0.002711874 -0.017890524 0.01194551 0.013599539
000260 f1 a7 9b bc 10 52 4d 3d b1 f6 82 bc ad 06 80 3c
       -0.01900098 0.05012709 -0.015986772 0.015628183
000270 74 50 3f 3d 76 98 e0 3c 14 6f d0 bc ad ab fa bc
       0.046707585 0.027416449 -0.025443591 -0.03059944
000280 f9 b1 08 3c 74 10 6c bb 53 fa e0 3c 1e 68 5b 3d
       0.008343213 -0.003602055 0.027463114 0.05356609
000290 47 a3 2d 3d d9 79 23 39 ec 16 4d bc 82 fc b6 3d
       0.04239204 0.00015590283 -0.012517672 0.08934881
0002a0 f4 02 c5 3c 4b 94 fe 3b 40 9d 62 bc 70 00 3a 3d
       0.02404926 0.0077691427 -0.013831437 0.045410573
0002b0 eb 8b 83 3c cb 73 43 bd 73 db 85 bd a8 ee 19 3d
       0.016057929 -0.04771785 -0.06535997 0.037581116
0002c0 4d 32 3b 3c 6e 3f 15 bb 6a 62 2f bd 7c b3 29 3d
       0.011425567 -0.0022773403 -0.042818464 0.041430935
0002d0 9d 7d 56 bd 66 41 f0 3b 48 43 8e bd 51 b1 6e bd
       -0.052365888 0.007332015 -0.06946427 -0.05827457
0002e0 af b5 88 bd 9c 06 1a 3d 2f dc 3b 3d 75 dc 64 bd
       -0.066752784 0.03760396 0.04586428 -0.055874307
0002f0 62 a3 19 3d d5 d1 11 bd 66 f8 61 bd a6 2e ea 3c
       0.03750933 -0.035600502 -0.05516853 0.028586697
000300 8c 1a e3 3c 75 64 ea 3c b9 8b 05 3c 2f 84 90 3d
       0.02772262 0.028612355 0.008150988 0.07056462
000310 2a 48 17 bd 99 8b 2c 3d ac 0c 49 bc ed ff ed 3a
       -0.036934055 0.04212532 -0.012271088 0.0018157937
000320 9d ef 4b 3d 00 5f e2 bb 55 a8 53 3d 36 20 28 3c
       0.04978906 -0.0069082975 0.051674206 0.010261586
000330 63 aa 94 3d c1 40 f8 3c 40 a1 5e 3d 79 64 4e 3d
       0.07259061 0.030304315 0.054353 0.050388787
000340 61 23 e4 bc 7f 74 83 bd 90 23 28 3d 08 01 4a bd
       -0.027848901 -0.06418704 0.04104954 -0.04931739
000350 a7 d3 19 bb ca a1 d6 3c 06 5e b5 bc 0d 13 0e 3d
       -0.0023472102 0.026200194 -0.02213956 0.034686137
000360 7e 0e 4c 3d 0d 49 93 bb fc 92 eb 3c 76 71 80 3c
       0.04981851 -0.0044947923 0.028756611 0.015679102
000370 dd e7 8c 3d eb 95 51 3d 16 3f f4 bb 75 77 1c 3d
       0.06880162 0.051168364 -0.0074538095 0.03819986
000380 43 77 82 3d dd 61 35 3d 94 b1 a1 3c f1 53 c1 3c
       0.063704036 0.044282783 0.019737996 0.023599597
000390 2b 73 83 bc 68 77 ec bb b6 18 39 bd 33 be 96 3d
       -0.016046127 -0.007216383 -0.04518958 0.07360496
0003a0 c5 51 94 3d dc 9f d1 bb 36 31 13 bd 9a ab 5f 3d
       0.07242159 -0.0063972306 -0.035935603 0.05460701
0003b0 9f e1 1f bd 48 f7 3d 3d 05 35 42 bd 8b f5 b2 bc
       -0.03903353 0.046378404 -0.047413845 -0.0218456
0003c0 7a cd 31 b9 79 22 a6 3d 9a 5f 7a 3c fc 61 2d 3d
       -0.00016956581 0.08112044 0.015281582 0.042329773
0003d0 a7 a0 08 3c 29 98 4d 3d 36 10 cd 3c 25 8e f6 3c
       0.008339084 0.05019394 0.025032144 0.030097077
0003e0 b9 e7 26 3d f6 1b 75 bc 55 c5 5c bc c1 53 b5 3c
       0.04074833 -0.01496028 -0.013474782 0.022134664
0003f0 90 24 19 3d 6d 98 11 bd 7c 05 6c bd cf 27 68 bd
       0.037388384 -0.035545755 -0.057622418 -0.05667859

net.8.bias f4 [64]
000000 50 93 dc bc 80 e7 23 3c 21 84 36 3c 6c 63 68 3d
       -0.026925713 0.010003924 0.0111399 0.05673544
000010 7f e3 5c 3d 4b ba 47 bd ee 1b f1 3c ee 69 45 bd
       0.053927895 -0.048761647 0.029432263 -0.048196726
000020 2d 05 f1 bc 51 bb c1 3c 8b 17 22 bd e7 78 53 3d
       -0.029421413 0.02364889 -0.039573234 0.051628973
000030 fc 45 b7 3c b1 75 b3 3b ef 3c 07 3d 8b 63 4d bd
       0.022372238 0.0054766764 0.033017095 -0.05014376
000040 b4 64 37 3c 17 62 b1 3c 44 76 d4 bc 57 c4 98 bc
       0.011193443 0.021653218 -0.0259353 -0.01864831
000050 cb ee c7 3c 1d 2d 4d 3d ce 74 b9 bc f4 90 17 3d
       0.024405858 0.05009185 -0.022638705 0.037003472
000060 0e 73 07 3d 3c 9b 05 bd 8e 58 32 bd f0 ba ed bb
       0.03306871 -0.032618746 -0.043541484 -0.0072549507
000070 19 c1 06 3d 8f 50 4a bd fc 0d 2b bd 5d 64 36 3d
       0.032898996 -0.049393233 -0.041761383 0.044529308
000080 9d af 09 bd b1 0e 2a bd 4b 28 ea ba 13 11 6f 3d
       -0.033614744 -0.041517917 -0.0017864791 0.058365893
000090 81 95 22 3d 29 3b fa 3c 3b 64 f2 3b 0b 1c ec bc
       0.03969336 0.030545788 0.0073972023 -0.028821966
0000a0 76 03 44 bd 6b bf 00 3d 6e a9 92 3c 5c 6b 68 3c
       -0.047854863 0.03143255 0.017903056 0.014185753
0000b0 02 22 aa bc 53 2b 74 bd 89 77 12 3c 2d 39 23 bc
       -0.02076817 -0.05961163 0.008939632 -0.009962362
0000c0 42 78 99 bb 0a 23 a6 3b 6e fb 0f bd 43 f7 17 bd
       -0.0046835253 0.005070095 -0.03515189 -0.03710104
0000d0 b4 7d 8b bc 30 29 b6 3c 72 44 1f bd 3a 07 54 3d
       -0.017027713 0.022236437 -0.038883634 0.051764704
0000e0 14 81 6c bd 81 12 17 bd 12 8a 85 3c 75 9b 6c bd
       -0.057740286 -0.03688288 0.016301189 -0.057765443
0000f0 e2 b1 04 bd 3d ea f8 3c c8 1c 15 bd 9c 22 a1 3c
       -0.032396205 0.030385131 -0.0364044 0.019669823

net.9.weight f4 [64]
000000 29 38 82 3f e9 28 84 3f d8 a3 82 3f 97 6f 83 3f
       1.0173389 1.0324985 1.0206251 1.026843
000010 5e 98 82 3f 26 0a 83 3f 1f cf 83 3f 00 98 82 3f
       1.0202749 1.0237472 1.0297583 1.0202637
000020 ec 0d 83 3f 89 1b 82 3f be d6 83 3f 7d 0d 82 3f
       1.0238624 1.0164653 1.0299909 1.0160366
000030 11 93 81 3f cd 84 82 3f 82 c0 83 3f 5a 9a 83 3f
       1.0123006 1.0196778 1.0293124 1.0281479
000040 c0 4c 83 3f 87 b1 81 3f 0a de 82 3f 38 bd 81 3f
       1.0257797 1.0132302 1.0224011 1.013587
000050 0f f2 80 3f 88 a2 81 3f 86 d6 82 3f 4c b1 83 3f
       1.007387 1.0127726 1.0221717 1.0288482
000060 35 e7 81 3f 6a e4 82 3f 5d bd 84 3f 45 f2 80 3f
       1.0148684 1.0225956 1.0370289 1.0073935
000070 08 95 82 3f 52 04 83 3f 68 b3 81 3f 7f af 83 3f
       1.0201731 1.0235693 1.0132875 1.0287932
000080 39 9b 82 3f 8e c3 80 3f 95 d0 82 3f 58 2e 84 3f
       1.020362 1.0059679 1.0219904 1.0326643
000090 b4 1a 81 3f 65 84 81 3f 8f ff 83 3f 31 5c 82 3f
       1.0086274 1.0118529 1.0312365 1.0184385
0000a0 32 c7 80 3f 33 75 81 3f c9 e2 80 3f 4c 06 83 3f
       1.006079 1.0113891 1.0069209 1.0236297
0000b0 fa 83 82 3f 0a ef 82 3f 67 eb 82 3f 33 d4 82 3f
       1.0196526 1.0229199 1.0228089 1.0221008
0000c0 1a 53 80 3f 37 00 82 3f e2 52 81 3f 83 7e 82 3f
       1.002536 1.0156316 1.0103419 1.0194858
0000d0 25 f6 81 3f a8 25 84 3f fa 05 82 3f f7 66 83 3f
       1.0153242 1.0323992 1.0158074 1.0265797
0000e0 cb f4 81 3f 96 5d 83 3f f0 23 84 3f 61 e3 81 3f
       1.015283 1.0262935 1.0323467 1.0147516
0000f0 b4 44 82 3f f1 24 83 3f 13 9e 82 3f 60 bb 81 3f
       1.0177217 1.0245649 1.020449 1.0135307

net.9.bias f4 [64]
000000 25 40 4f 3c 62 52 a5 3c 6c f6 a2 3b 4b b4 7e 3c
       0.012649571 0.020180885 0.0049732234 0.015545915
000010 62 9e 88 3c 2b 07 e8 3b 9a 31 34 3c 86 05 0f 3c
       0.016677085 0.0070809326 0.010998154 0.008729344
000020 35 fc a4 3c 0b 53 4f 3c 29 5d 99 3c 4b 0e cc 3b
       0.020139793 0.012654076 0.01872118 0.00622729
000030 13 79 4f 3c 1c 36 8e 3c 0f 7b 64 3c ee da a5 3c
       0.012663144 0.017359786 0.013945355 0.020245995
000040 24 8e 79 3c a2 aa aa 3b 38 b4 96 3c d8 67 cb bb
       0.015231643 0.0052083293 0.018396482 -0.0062074475
000050 9f a1 3a bc 46 0f 70 3c 72 8b 88 3c c6 b2 9b 3c
       -0.0113910725 0.014652079 0.016668055 0.019006144
000060 9f 35 5a 3c f1 ad 9b 3c 16 aa c2 3c 7d db fb bb
       0.013318448 0.01900384 0.023762744 -0.007686077
000070 10 27 fa bb 3f 28 ae 3c 27 d0 9c 38 f6 e0 61 3c
       -0.007634051 0.021259425 7.477431e-05 0.013786545
000080 e6 2b 04 bc 23 63 3f 3b 52 1a 9d 3c b6 3d aa 3c
       -0.008067107 0.0029203377 0.01917759 0.02078138
000090 38 ff 8a 3b 04 ef 4e bc b5 66 aa 3c de d6 2f 3c
       0.00424185 -0.012630228 0.020800928 0.010732381
0000a0 f0 07 c3 bb 83 e7 18 bb 04 5b 29 bc ce 2b 87 3c
       -0.005951874 -0.002333135 -0.010336641 0.01650038
0000b0 12 bf 57 3b dc 7f 4c 3b eb 35 a0 3c dc 6d 94 3c
       0.0032920283 0.003120414 0.01955696 0.018118791
0000c0 70 a2 d9 bb 9b 42 c9 bb db a9 3b ba 98 c3 50 b9
       -0.0066416785 -0.006141973 -0.00071587943 -0.0001990929
0000d0 64 76 1c 3c 3c 20 99 3c 61 9c c9 3b 98 09 8b bb
       0.009549711 0.018692128 0.006152675 -0.004243087
0000e0 40 d9 8f 3c e5 54 55 3c 99 c7 bd 3c 05 13 ec ba
       0.017559648 0.013020729 0.023166465 -0.0018011039
0000f0 91 34 5f 3c 6d fa 71 3c f1 82 97 3c 0c ea 4f 3c
       0.013623373 0.014769179 0.018495055 0.0126900785

net.9.running_mean f4 [64]
000000 84 ce 85 bd fc 25 1e bd 7f 4b 02 bc ab fc 21 3e
       -0.0653353 -0.038610443 -0.00795257 0.15819041
000010 cd f9 80 bf bb 82 80 be 2e 0a db 3e be 3b c0 be
       -1.0076233 -0.2509974 0.42781204 -0.3754558
000020 73 30 6a be 09 c7 b8 be 86 b4 8b be 25 e7 85 be
       -0.22870044 -0.36089352 -0.27286166 -0.26152912
000030 9b 31 9c be 90 83 2a bf 60 8c af bd 11 f5 4e 3d
       -0.30506596 -0.66607 -0.08571696 0.050526682
000040 60 03 6d be c7 d5 79 be 5d 0b 23 bf f0 64 90 3d
       -0.23145819 -0.24397956 -0.63689214 0.07050502
000050 24 69 cb 3e 5e 65 0f bf b3 08 97 be a8 c1 ef bd
       0.39728653 -0.5601405 -0.29498824 -0.11706859
000060 b7 be 8b be 4f 18 04 bf 98 7f 4d be 86 81 8e 3e
       -0.2729394 -0.5159959 -0.20068204 0.27833194
000070 ad 56 0b 3f 85 39 0a bf 35 41 19 be 0e fd 43 bc
       0.5442913 -0.5399402 -0.14966281 -0.011962188
000080 a1 f2 ab 3e 48 06 35 be bf 29 2e bf a5 a9 1a 3e
       0.3358355 -0.17678177 -0.6803245 0.15103777
000090 1a 38 99 3e 85 3d 98 3e 8a 8f 8b be 29 ce a6 be
       0.29925615 0.29734436 -0.2725795 -0.32579163
0000a0 a1 06 e7 3e 7e 35 21 be 83 24 ee 3e 0d ed c6 bd
       0.45122245 -0.15743062 0.4651223 -0.097131826
0000b0 3b fb bc bb eb b6 04 3e 3d bc 39 be 2b 2c 70 bf
       -0.0057672537 0.12960403 -0.18138213 -0.93817395
0000c0 a7 f9 74 3d c3 8c 6e 3e 58 a8 00 bf c3 38 34 3e
       0.0598084 0.23295884 -0.5025687 0.17599778
0000d0 29 a9 d6 bc ec 27 06 be ad 9a 68 be 5f ce 0a 3f
       -0.026203709 -0.13101166 -0.22715254 0.5422115
0000e0 33 e9 c9 be 84 29 8a bc 1b 8c a3 3d f5 a2 67 3e
       -0.3943573 -0.0168655 0.07985707 0.22620757
0000f0 ed 6a da bd e5 ca 96 bd 45 a2 f2 be 94 b6 3f bf
       -0.10664926 -0.07362918 -0.47389427 -0.7488797

net.9.running_var f4 [64]
000000 6f 30 73 3e a3 a2 54 3e 2a 5d 6c 3e 82 20 15 3e
       0.23748945 0.20765166 0.23082414 0.14563182
000010 19 d9 80 3f 04 c6 5f 3e 98 42 62 3e bb 23 5a 3e
       1.0066253 0.2185288 0.22095716 0.21302693
000020 2e 1a 14 3f 6b c1 f6 3e c5 cf 67 3e e6 79 4e 3e
       0.5785245 0.4819444 0.22637852 0.20163688
000030 4f 74 0d 3f 12 f0 7b 3f d6 13 73 3e c1 c7 83 3e
       0.552556 0.98413193 0.23738036 0.25738338
000040 6d dd 4d 3e 6d e8 7a 3e 7a 1f 21 3f fa 61 18 3e
       0.20103998 0.24502726 0.62938654 0.14881125
000050 e6 37 aa 3e e7 72 a2 3f 4d 25 17 3e 29 af 3e 3e
       0.33245772 1.2691315 0.14760323 0.18621506
000060 f2 4a 1d 3e 51 ea 15 3f 43 c7 16 3e 2a 34 87 3e
       0.1536062 0.58560663 0.1472445 0.26406986
000070 2d 12 4d 3e 8f 53 f8 3e 86 3e 5c 3e 0a 66 4b 3e
       0.20026465 0.4850125 0.21508226 0.19863144
000080 82 72 a4 3e 98 e8 92 3e 78 de 05 3f f5 f0 0d 3e
       0.32118613 0.2869308 0.52292585 0.13861449
000090 35 95 0d 3f a8 1d 56 3e e6 49 2a 3e 2c 89 d6 3e
       0.55305797 0.2090975 0.16629753 0.4190153
0000a0 b3 61 e7 3e f7 44 82 3e c1 47 04 3f ff 1a 01 3e
       0.45191726 0.2544324 0.5167199 0.12607954
0000b0 1e 8e 1e 3e 77 f1 5a 3e d7 51 3a 3f 40 c2 83 3f
       0.15483901 0.21381174 0.7278113 1.0293655
0000c0 db 59 35 3e 90 a0 45 3e 2b b8 43 3e 1f 3d 80 3e
       0.17710058 0.19299531 0.19113223 0.25046632
0000d0 4c 6b ab 3e 10 ee 29 3e 76 e7 60 3e e8 f1 59 3e
       0.334803 0.1659472 0.21963295 0.21283686
0000e0 06 4d 9b 3e 41 88 02 3e e5 6d 0a 3e 93 9c 8c 3e
       0.30332202 0.12747289 0.13518484 0.27463207
0000f0 e0 f0 33 3e d1 e6 72 3e f5 a4 49 3f 1a a9 99 3f
       0.17572355 0.23720862 0.7876733 1.2004731

head.weight f4 [3, 64]
000000 7d ce 8c bd 78 95 87 bd 59 08 4c 3c 01 0b ca 3c
       -0.06875322 -0.06620306 0.012453162 0.02466345
000010 ab 6a 09 3e a0 29 6d 3c b7 f5 22 3d f1 e5 9b bd
       0.13419597 0.014475256 0.039785113 -0.07612217
000020 cf d6 05 3e 35 65 85 3c f6 b7 c9 3d c0 30 f2 bd
       0.13070224 0.01628361 0.09849541 -0.118257046
000030 bb a0 a4 3d e7 6a f8 3d 57 d4 db 3d 04 7c 06 3e
       0.080384694 0.12129765 0.1073386 0.13133246
000040 49 a6 99 bd e1 18 d5 bd 36 66 89 3d 95 a2 47 3d
       -0.075024195 -0.10405136 0.06708948 0.048739035
000050 cc bb 9f bd 41 c7 aa bc bc 96 29 3c 9b aa 25 bc
       -0.07799491 -0.020846965 0.010350879 -0.010111476
000060 99 dc 92 3d 3b 85 e2 3d 7e 29 79 3d 0f 98 62 bd
       0.07170982 0.11060568 0.060830586 -0.055320796
000070 7e 43 b2 bd 4d 03 06 3e 55 23 14 3c 17 54 a1 bd
       -0.08704279 0.13087197 0.009041627 -0.07877367
000080 e5 02 dd bd a8 60 ab bd 4a 59 0f 3e 6d 01 86 bd
       -0.10791568 -0.08368045 0.13998905 -0.06543241
000090 a2 39 05 be 40 67 be bd 75 b1 62 bd 97 be 56 3c
       -0.13010266 -0.09297037 -0.055345017 0.013106964
0000a0 f9 c1 bb bd 63 db 4b 3d ba db c9 bc 87 c2 26 bd
       -0.09167857 0.04976977 -0.024640907 -0.04071286
0000b0 77 14 76 bd c1 a3 02 bd e8 e0 12 3e 7c bc e3 3c
       -0.06007811 -0.03189445 0.14343607 0.027799837
0000c0 65 0c 36 3d 1a 64 0a be a5 b3 8f 3d 10 d5 01 3d
       0.044445414 -0.13514748 0.07016686 0.031697333
0000d0 19 c0 72 bc c6 23 25 bb 9f d0 5e bd 51 6a fc bd
       -0.014816307 -0.0025198325 -0.054398175 -0.12324966
0000e0 ae 6d 86 bd ff bb 69 3d 9e 87 0a 3e 58 1d cc bd
       -0.065638885 0.057064053 0.13528296 -0.099665344
0000f0 fc 39 90 3d 3c 19 7d bd 6e 02 eb 3d 4c e0 08 3d
       0.0704231 -0.061791644 0.11475073 0.03341703
000100 f7 bc 04 be 8d 09 0d be cf a2 29 3c 25 82 99 3d
       -0.1296271 -0.13773175 0.010353758 0.07495526
000110 fe 0d c3 3c 27 60 32 3c d6 fb 80 bc e3 c6 a5 bd
       0.023810383 0.010887182 -0.015745085 -0.08094575
000120 c0 71 06 3c c5 48 ea bd b3 84 51 3d 69 92 40 bd
       0.008205831 -0.11439661 0.051151942 -0.047014628
000130 a4 76 fc bd b6 24 9a ba 75 49 0d 3d f2 30 de bd
       -0.123273164 -0.0011760208 0.034493882 -0.10849179
000140 62 0d c7 bd d0 16 b2 bc 56 a5 87 bd 05 07 ec 3d
       -0.097193494 -0.021739393 -0.06623332 0.11524776
000150 4a bd e4 3c b5 5b 4c bd fe ee f4 bd 04 88 f9 bd
       0.027922291 -0.049892146 -0.11959647 -0.12184146
000160 f3 63 da 3c 73 63 33 bd 13 bb 81 3c 7d 83 fd 3c
       0.026658988 -0.043796014 0.015836274 0.030946488
000170 91 0b dc 3d ad 57 80 bc 9f 0c f1 3c 02 4c 12 be
       0.107443936 -0.015666807 0.029424964 -0.14286807
000180 a2 9a df 3d 76 56 f4 bd fc 0a 4b bd 1c 2b 1e be
       0.10918166 -0.119305536 -0.049571022 -0.15446132
000190 77 6e 76 3d 84 79 ac bc 8e 7a 1e be 3d 4b af bd
       0.06016394 -0.021054037 -0.15476438 -0.085592724
0001a0 1d 4e 94 3d 7a 1f 8f 3d 8e c3 c4 3d 5a 31 12 be
       0.072414614 0.069884256 0.096076116 -0.14276639
0001b0 6f 26 55 bd 1c 71 0f 3d a1 6f b2 bc 0b 50 9f bd
       -0.052038606 0.03501998 -0.021781744 -0.07778939
0001c0 ef 07 fa 3d 12 cb 7f bd a8 d8 95 3d 92 fe b5 3d
       0.122085445 -0.062449522 0.073167145 0.08886446
0001d0 f9 d9 ff bd 3f 54 eb bd 26 ab de bd 72 8e e6 3d
       -0.12492747 -0.11490678 -0.10872488 0.11257638
0001e0 d7 d4 00 be b9 a9 c3 bc 18 d7 5a bd af 52 10 bd
       -0.12581192 -0.023884641 -0.053427786 -0.035235103
0001f0 e9 68 ba bd 9a 12 07 be 8f dd f7 bd 7f 35 c1 bc
       -0.09102041 -0.1319069 -0.12102806 -0.02358508
000200 ef df a4 3c bb 07 6e 3d 3d 62 78 3d 8c 23 ac bd
       0.020126311 0.05811284 0.060640562 -0.084052175
000210 78 87 42 3d af 8f c3 3d 00 fb 03 be 42 b4 01 3e
       0.047492474 0.0954889 -0.12888718 0.12666419
000220 b4 41 18 bd d5 9a 99 bc 5b 22 17 be aa cf a2 3d
       -0.037172034 -0.018750587 -0.147592 0.07949765
000230 3c ba 29 3d 89 31 7b 3c 95 dd df 3c 6f 15 0f be
       0.041437373 0.015331634 0.027327338 -0.1397302
000240 02 f7 18 3e 2c 4c c1 3d 71 fb 71 bd 00 2f 43 3d
       0.14937976 0.09438357 -0.059077684 0.047652245
000250 01 32 73 bd b4 09 62 bd 15 d8 11 bb 56 e5 cb 3d
       -0.05937386 -0.055185035 -0.002225404 0.09955852
000260 9b fc 8c 3d d5 93 84 bd 4b 76 0e be ae 72 80 bb
       0.06884118 -0.06473509 -0.13912313 -0.003919921
000270 11 41 8e bd 28 46 ed bc cc de af 3d 94 e2 dd 3d
       -0.06946004 -0.028964117 0.08587417 0.10834232
000280 bb 04 ed bb 06 72 67 3d b0 83 18 ba 48 5a 4d bd
       -0.00723323 0.056505226 -0.0005817963 -0.050134927
000290 b2 f2 aa 3d bc 84 d6 bd 7c 41 06 3c 60 bf 75 bd
       0.08347072 -0.10474536 0.008194324 -0.059996963
0002a0 58 78 05 3c 5f f2 f2 3d 58 39 f3 3c ad 5a 8d bb
       0.008146368 0.11862635 0.02969043 -0.004313788
0002b0 17 b0 0f be 5b ba eb bd ef 1b 46 bd 8f 39 a6 bd
       -0.14032017 -0.11510154 -0.048366483 -0.08116447
0002c0 8b cc 83 3b 72 5c 07 be 6d 0a 02 3e d1 8a 7f bd
       0.004022186 -0.13218859 0.1269929 -0.062388245
0002d0 c3 09 b0 3d aa 61 e8 3d 57 40 eb 3d b5 20 c7 bc
       0.08595612 0.11346753 0.11486881 -0.024307588
0002e0 7b 81 89 3c e4 be 80 3d fc 80 fd bd 5b 9d c2 3b
       0.016785374 0.062864095 -0.123781174 0.0059391684
0002f0 99 3b 59 3d 49 ae 67 3c 64 cc de bd af ae 33 3a
       0.053035352 0.014140674 -0.10878828 0.0006854338

head.bias f4 [3]
000000 b1 1f 49 bc 0c 95 81 3d 9a f6 c2 bd
       -0.012275622 0.063272566 -0.09519692
